results/best_model.pt (torch, 315855 bytes, 8 tensors)

weight f4 [64, 4, 3, 3]
0	0x3db116aa	0.08646901
1	0x3d12051c	0.035649404
2	0xbd873e70	-0.06603706
3	0xbd912f7b	-0.07089134
4	0x3c62acd0	0.013835147
5	0x3d3a06f4	0.045416787
6	0x3c8e7278	0.017388567
7	0xbd9553c8	-0.07291371
8	0x3d879522	0.06620242
9	0xbdd5abfe	-0.104331955
10	0xbd73fb3c	-0.059565768
11	0x3e1186f9	0.14211644
12	0x3d1a4844	0.037666574
13	0xbdd38deb	-0.10329803
14	0x3ddc90e2	0.10769822
15	0xbdb793fb	-0.08963772
16	0x3df5367a	0.11973281
17	0xba8dbf80	-0.0010814518
18	0xbe1d3dec	-0.15355653
19	0xbcd4f558	-0.025995895
20	0x3df29a2a	0.11845811
21	0x3daea80a	0.08528145
22	0xbdedc150	-0.11609137
23	0xbe0516ab	-0.12996928
24	0xbe17aff2	-0.14813212
25	0xbdbc78b6	-0.09202711
26	0x3e0b00c1	0.13574506
27	0x3e0237dd	0.12716623
28	0xbe12fdc7	-0.14354621
29	0xbaa08080	-0.0012245327
30	0xbd751cac	-0.059841797
31	0xbdfe98d3	-0.12431493
32	0xbdccc33e	-0.09998177
33	0xbe2970dc	-0.16546959
34	0xbb6c1140	-0.0036021024
35	0xbe06d430	-0.1316688
36	0x3d7ff3f0	0.062488496
37	0x3de1afd2	0.11019863
38	0x3c715db0	0.0147318095
39	0x3de7e98a	0.11323841
40	0x3da53c60	0.08068156
41	0xbd140aec	-0.03614323
42	0x3d25c1a0	0.04046786
43	0x3dce7e66	0.10082702
44	0x3de4979a	0.11161728
45	0xbe0aee90	-0.13567567
46	0xbe2359c0	-0.15952206
47	0x3d5bbe5c	0.053648338
48	0x3c93f3d8	0.01806061
49	0x3d9efbda	0.077628806
50	0x3db3603e	0.08758591
51	0xbd3ea1a6	-0.04654088
52	0x3d3004c0	0.04297328
53	0x3d3f36d0	0.046683133
54	0xbcd28d08	-0.025702015
55	0x3e104a33	0.14090805
56	0x3d193fb0	0.037414253
57	0x3ddb476a	0.107069805
58	0x3dc3e326	0.095648095
59	0x3dad553e	0.08463524
60	0xbe249837	-0.1607369
61	0x3ca402b8	0.020020828
62	0x3e16d15b	0.147283
63	0xbdecd21b	-0.11563512
64	0x3de0662a	0.10956986
65	0x3d65eca4	0.05613388
66	0x3da4c86a	0.080460384
67	0x3d932d46	0.071863696
68	0xbd93bb9b	-0.07213517
69	0xbd87c560	-0.06629443
70	0x3dd9b042	0.10629322
71	0xbdfe70e0	-0.12423873
72	0x3d1ac36c	0.037784025
73	0x3c89a2c8	0.016801253
74	0xb8841800	-6.298721e-05
75	0x3e11a515	0.1422313
76	0x3d2b6174	0.041840985
77	0x3df9777a	0.121809915
78	0xbdd695eb	-0.10477813
79	0x3de76386	0.112982795
80	0xbdf7a12e	-0.120912895
81	0x3cfabb18	0.030606791
82	0x3e09a031	0.13440014
83	0xbbba4360	-0.0056843013
84	0x3d820e9a	0.06350441
85	0x3e0a3b39	0.13499154
86	0x3a11cf00	0.00055621564
87	0x3d4a5f3c	0.04940723
88	0x3ddef186	0.10885911
89	0xbd941260	-0.07230067
90	0xbdf80376	-0.12110035
91	0xbd155c4c	-0.036464974
92	0xbe236458	-0.15956247
93	0x3d50da00	0.05098915
94	0x3d717030	0.05894488
95	0xbe1ca1f7	-0.1529616
96	0x3ce25f20	0.02763325
97	0xbd8f5fe3	-0.07000711
98	0xbd0bab00	-0.034098625
99	0x3d38d9fc	0.04512976
100	0xbd941e90	-0.07232392
101	0xbd7ff5bc	-0.06249021
102	0xbe0c28e8	-0.1368748
103	0x3d727434	0.05919285
104	0x3c863e58	0.01638715
105	0x3ca34148	0.01992859
106	0x3c34c900	0.01103425
107	0xbde21ce8	-0.1104067
108	0xbd6427c0	-0.05570197
109	0x3d6fc1ec	0.058534548
110	0x3d8f9ace	0.070119485
111	0xbdc2617e	-0.094912514
112	0xbd574ce0	-0.052563548
113	0xbe1659b7	-0.14682661
114	0xbe13db0e	-0.14439031
115	0xbe26eb54	-0.16300708
116	0x3abd0600	0.0014421344
117	0xbd10acd4	-0.03532107
118	0x3e07a2ad	0.1324565
119	0xbcbc8980	-0.023014784
120	0x3dc2bfc6	0.09509234
121	0x3df95332	0.12174071
122	0xbdd42e48	-0.1036039
123	0xbc3d7980	-0.011564612
124	0x3e000735	0.1250275
125	0x3dbbc632	0.09168662
126	0x3d41aeb4	0.04728575
127	0x3da6a2b6	0.081365034
128	0xbdd1e82b	-0.10249361
129	0xbd936243	-0.07196476
130	0xbe1133a8	-0.14179862
131	0xbca8b728	-0.020595148
132	0xbd92c3fb	-0.071662866
133	0x3cfc5bf8	0.030805573
134	0x3c5f81f0	0.013641819
135	0xbd66e7b6	-0.05637332
136	0x3d984b72	0.07436265
137	0x3d9dcfea	0.07705672
138	0x3c1bec90	0.00951685
139	0xbe02d93b	-0.1277818
140	0xbe07b38e	-0.13252088
141	0xbce4d7c8	-0.027934924
142	0x3b98f280	0.00466758
143	0x3cfee0e8	0.031113103
144	0x3cf00a78	0.029301867
145	0xbd9d88ae	-0.07692085
146	0xbe00d507	-0.12581263
147	0xbde6ee9b	-0.11275979
148	0x3de73ed2	0.11291279
149	0x3df61bea	0.12017043
150	0x3d318c90	0.04334694
151	0xbb9c7e80	-0.004775822
152	0x3e0ee0d7	0.13952957
153	0xbe0bd883	-0.13656811
154	0x3da3d85a	0.0800025
155	0x3e063231	0.13105084
156	0x3df11426	0.11771421
157	0xbdc7ec98	-0.097619236
158	0x3d994b76	0.07485096
159	0xbdf4b990	-0.11949456
160	0xbc5f8f90	-0.013645068
161	0xbddddede	-0.10833524
162	0x3cad9cc0	0.021192908
163	0x3e287939	0.16452493
164	0x3deb08e2	0.11476304
165	0xbdcfed93	-0.101527356
166	0xbd51d65c	-0.05122982
167	0x3d929096	0.07156484
168	0x3cabb418	0.020959899
169	0x3b01aac0	0.0019785613
170	0x3d183560	0.037160277
171	0x3d0b66a4	0.034033433
172	0x3ddb1cf6	0.10698883
173	0x3e02ffd9	0.1279291
174	0x3d0d261c	0.034460172
175	0xbe06920e	-0.13141653
176	0xbe041dbe	-0.1290197
177	0x3dedb75a	0.11607237
178	0x3d97eeae	0.074185714
179	0x3e055a6f	0.13022779
180	0xbd8052ce	-0.06265794
181	0x3e21cd19	0.15800895
182	0x3d71b174	0.059007123
183	0xbda2cfc8	-0.079497874
184	0x3ccaf6c0	0.024775863
185	0xbdd642ee	-0.104619846
186	0xbde0650b	-0.109567724
187	0xbe0afde7	-0.13573419
188	0xbccc14e0	-0.024912298
189	0xbd813f98	-0.06310958
190	0x3e0c8185	0.13721283
191	0xbe28568c	-0.16439265
192	0xbd306386	-0.043063663
193	0x3d8f33ce	0.06992303
194	0xbe044c66	-0.12919769
195	0x3d2484c4	0.040165678
196	0x3d8d5956	0.06901805
197	0xbd99599b	-0.07487794
198	0x3cb77518	0.022394702
199	0x3db23f52	0.08703484
200	0x3da2efd0	0.07955897
201	0xbe12ab20	-0.14323092
202	0xbe0ad39a	-0.13557282
203	0xbc7ba9d0	-0.015360311
204	0xbd6f845c	-0.058475837
205	0x3d8f95fe	0.070110306
206	0xbe174314	-0.14771682
207	0x3dca3112	0.09872641
208	0xbdd61218	-0.1045267
209	0xbdecdbee	-0.11565386
210	0xbc320b10	-0.010866895
211	0xbbc19c20	-0.005908504
212	0xbc461d50	-0.01209195
213	0x3c83dfe8	0.016097978
214	0x3d14ecbc	0.03635858
215	0x3dbc177a	0.09184165
216	0xbe1bbdaa	-0.1520907
217	0xbe0702a6	-0.13184604
218	0x3e189b37	0.1490296
219	0xbdbb98d3	-0.09160008
220	0xbcecb468	-0.028894618
221	0x3db40bea	0.08791335
222	0xbd474400	-0.048648834
223	0xbe265540	-0.16243458
224	0x3c2ec140	0.010666192
225	0x3e06a3ad	0.13148375
226	0xbd6a8cbc	-0.05726312
227	0x3ca45488	0.020059839
228	0x3e0f015d	0.13965364
229	0xbd1b6c54	-0.037945107
230	0xbd7c4976	-0.061593495
231	0x3d1ad000	0.03779602
232	0xbcc30c08	-0.023809448
233	0x3df37e7a	0.11889358
234	0x3d249be0	0.040187716
235	0x3e171289	0.14753164
236	0xbe263770	-0.16232085
237	0xbd497b5c	-0.04918991
238	0xbdb61816	-0.08891313
239	0xbd73e540	-0.0595448
240	0x3ddc1032	0.107452765
241	0x3ddd0e9a	0.10793801
242	0x3dabbaa6	0.0838521
243	0x3c62fb80	0.013853908
244	0x3d66dc64	0.056362525
245	0x3dc49f8e	0.09600745
246	0x3dd6e80e	0.1049348
247	0x3d0d3784	0.034476772
248	0x3e08e071	0.13366868
249	0xbbe3c200	-0.006950617
250	0x3c82b4a8	0.015955284
251	0xbd39429c	-0.04522954
252	0xbc974148	-0.018463746
253	0x3e1707ad	0.14749022
254	0x3e10ec51	0.14152648
255	0xbdde005e	-0.10839914

bias f4 [64]
0	0xbe08a49c	-0.13344043
1	0xbca287e8	-0.019840196
2	0xbc7b47d0	-0.015336946
3	0x3d7f5b4c	0.062342927
4	0x3cb945f8	0.022616372
5	0xbdb988b0	-0.09059274
6	0xbd851ad0	-0.06499255
7	0x3da9c8f2	0.082902804
8	0x3da7902a	0.08181794
9	0xbdd50686	-0.10401635
10	0xbe12c646	-0.14333448
11	0x3d179e90	0.03701645
12	0x3db537be	0.088485226
13	0x3e04d3c9	0.12971415
14	0x3d27dad4	0.040980175
15	0xbc4c1170	-0.012455329
16	0xbe187f97	-0.14892422
17	0x3d19ab4c	0.037516877
18	0x3e127c31	0.14305188
19	0xbd00b46c	-0.031422064
20	0xbda9f6eb	-0.08299049
21	0x3b4ca1c0	0.003122434
22	0x3e02b3ed	0.12763949
23	0xbdee1f1e	-0.11627029
24	0x3dd50f66	0.10403328
25	0x3d04048c	0.0322309
26	0xbdafeeae	-0.085904464
27	0x3db09dda	0.08623858
28	0x3d9485fa	0.072521165
29	0x3c8392c0	0.016061187
30	0xbd84925e	-0.0647323
31	0x3cac4918	0.021030948
32	0x3e15a555	0.1461385
33	0xbe184354	-0.14869434
34	0x3e00d2a9	0.1258036
35	0x3db23682	0.08701803
36	0x3d15a474	0.036533788
37	0x3e12ea5d	0.14347215
38	0x3d7a44c4	0.061100736
39	0x3c11ecb0	0.008906528
40	0xbd9f0fbe	-0.077666745
41	0x3e16a269	0.14710392
42	0xbbb11e60	-0.0054052323
43	0xbd6b323c	-0.057420954
44	0x3d504ac0	0.050852537
45	0x3d9eb9d6	0.07750289
46	0xbd771416	-0.06032189
47	0x3d715070	0.0589146
48	0x3d53b860	0.051689506
49	0xbd383180	-0.044969082
50	0x3d926a80	0.071492195
51	0xbe05ac98	-0.1305412
52	0x3d94d106	0.072664306
53	0xbde5a49b	-0.112130366
54	0xbdffee46	-0.12496619
55	0x3d68e960	0.05686319
56	0x3e214c0b	0.15751664
57	0xbe1b3c90	-0.15159822
58	0x3c7fb3f0	0.015606865
59	0x3df961d6	0.12176864
60	0x3cf64aa0	0.03006488
61	0xbda3717e	-0.07980631
62	0xbd4a47dc	-0.049384937
63	0xbd168c84	-0.0367551

weight f4 [64, 64, 3, 3]
0	0x3ce8bbda	0.028409887
1	0xbcbe433b	-0.023225417
2	0x3ca3d3e8	0.019998506
3	0xbc42af1c	-0.01188257
4	0x3c107f9c	0.008819487
5	0x3cf2765e	0.029597457
6	0xbcfacf8b	-0.030616542
7	0xbbcf47f8	-0.006325718
8	0xbbe338c8	-0.006934259
9	0x3d2a50a1	0.0415808
10	0x3d121a6d	0.035669733
11	0xbc2375cc	-0.009976815
12	0x3d27b4bf	0.040943857
13	0x3aff3860	0.0019471757
14	0xbc6dce36	-0.014514497
15	0xbc31764c	-0.010831427
16	0x3ced1d4a	0.02894463
17	0xbd2470ce	-0.04014664
18	0x3a9a7f00	0.0011787117
19	0x3b1aee70	0.0023640655
20	0xbc215484	-0.00984681
21	0x3cddae3a	0.027060617
22	0x3c571f8c	0.01313008
23	0xbcfc94b0	-0.030832618
24	0xbc84897b	-0.016178837
25	0x3bc22cb8	0.005925741
26	0x3cd5d3d2	0.02610198
27	0xbd08e7d3	-0.03342421
28	0xbcb4e2c3	-0.022080785
29	0xbcd0e718	-0.02550082
30	0x3d1d0935	0.03833886
31	0xbc836ffb	-0.016044607
32	0xbca44c93	-0.020056045
33	0xbcf40c73	-0.029791093
34	0x3d00cc5f	0.031444903
35	0x3bd2eda0	0.0064370185
36	0xbc03fc0c	-0.008055698
37	0x3c019c64	0.007910822
38	0xbce618de	-0.02808803
39	0x3d081711	0.033225123
40	0xbb89ed08	-0.0042091645
41	0xbca15b3b	-0.019696822
42	0x3d16eb2f	0.036845382
43	0x3cba374a	0.022731442
44	0x3cbde5da	0.02318089
45	0xbbd59a08	-0.006518606
46	0xbcade206	-0.02122594
47	0x3ca1eb9e	0.019765671
48	0x3d1239bd	0.035699595
49	0xbd14e1f7	-0.03634831
50	0x3c6edb00	0.014578581
51	0xbbb09e18	-0.00538994
52	0xba3f80c0	-0.0007305257
53	0xbc8ebf76	-0.01742528
54	0x3c563ddc	0.013076272
55	0xbcfeda38	-0.031109914
56	0x3cc036ba	0.023463596
57	0xbc99ae03	-0.018759733
58	0x3cf653fe	0.030069347
59	0x3b3f59c0	0.0029197782
60	0xbd1887ea	-0.037238993
61	0xbd1020d2	-0.03518755
62	0x3b733f50	0.0037116595
63	0x3d06b2e9	0.032885466
64	0x3b622ff0	0.0034513436
65	0x3d1335c9	0.035939965
66	0x3cdddd16	0.027082961
67	0x3d16acbf	0.036785837
68	0x3cf26f1e	0.029594
69	0x3d0902bd	0.033449877
70	0x3cc4d2e6	0.024026345
71	0xbb9ff678	-0.0048816763
72	0xbcd4804b	-0.025940081
73	0x3cfe1052	0.031013642
74	0x3bfb7e68	0.007674981
75	0xbbf33ee0	-0.007423267
76	0x3ccf9e86	0.025344145
77	0x3d09fba5	0.033687253
78	0x3cad16a6	0.021128964
79	0x3ccc145e	0.024912056
80	0x3c7be050	0.0153733045
81	0x3b6b9770	0.0035948418
82	0xbc9438a3	-0.018093413
83	0x3cafb996	0.021450799
84	0x3be4e2a8	0.0069850273
85	0xbb903160	-0.004400417
86	0x3c1d0230	0.009583041
87	0x3d05b7e1	0.032646064
88	0xbbe72bd8	-0.007054787
89	0x3d00913b	0.031388503
90	0x3c5428f0	0.012949213
91	0x3d04b949	0.032403264
92	0xbd1413a7	-0.036151554
93	0xbb58d390	-0.0033085085
94	0x3d289de9	0.04116622
95	0xbab35880	-0.0013682991
96	0x3cee972a	0.029124815
97	0xbc54215c	-0.012947407
98	0xbcbeec93	-0.023306167
99	0x3d04980d	0.03237157
100	0xbcc94703	-0.024569994
101	0x3c5b92b4	0.013401676
102	0x3d26ac79	0.040691826
103	0x3c3a4670	0.011369333
104	0xbc95c6c3	-0.018283254
105	0xbcb62976	-0.022236567
106	0x3bcc42e8	0.006233562
107	0x3ca24780	0.019809484
108	0xbd15878b	-0.036506217
109	0x3b98ca78	0.004662808
110	0x3d11da37	0.035608497
111	0x3c55e8f4	0.013056029
112	0xbcca659b	-0.024706652
113	0x3ad40200	0.0016174912
114	0xbcbf36fe	-0.023341652
115	0xbd062d26	-0.0327579
116	0x3d2446b1	0.04010648
117	0x3d05e215	0.03268631
118	0x3c8af610	0.016963035
119	0x3ce371b2	0.027764175
120	0xbd066ee2	-0.03282059
121	0xbc04bc0c	-0.0081014745
122	0xbb6013d0	-0.0034191497
123	0xbce5d108	-0.028053775
124	0xbc63c376	-0.013901582
125	0x3d174299	0.036928747
126	0x3ca9d658	0.02073209
127	0xbce29366	-0.027658176
128	0xbc00e220	-0.007866412
129	0xbd1d0426	-0.038334034
130	0xbd205dc6	-0.03915193
131	0x3c7b663c	0.015344199
132	0xbd0e47b6	-0.034736358
133	0xbc938de6	-0.018011998
134	0x3d056e87	0.03257611
135	0x3bbddfd8	0.0057945065
136	0x3b8cd0c0	0.004297346
137	0xbbc7fe60	-0.006103322
138	0xbbcddc58	-0.0062823705
139	0x3c479c20	0.012183219
140	0x3c75e604	0.015008453
141	0x3d0980fb	0.03357027
142	0x3cbd31f2	0.023095105
143	0xbc3343c0	-0.010941446
144	0x3b3cd9d0	0.002881635
145	0xba52a0c0	-0.0008034818
146	0x3cc904ba	0.024538387
147	0x3d21fd8d	0.039548445
148	0xba095f40	-0.00052403286
149	0x3d25d531	0.04048652
150	0x3c7920f0	0.015205607
151	0x3d2a18d5	0.041527588
152	0x3d0c1995	0.034204084
153	0xbb62f330	-0.0034629814
154	0x3ccd3aea	0.025052506
155	0xbc1b7fd0	-0.009490922
156	0x3d05c01d	0.032653917
157	0x3cd40762	0.025882427
158	0x3d27c1fd	0.040956486
159	0xbc947ca8	-0.018125847
160	0xbcd69ecb	-0.026198765
161	0xbc7917f0	-0.015203461
162	0xbcd17b3b	-0.025571456
163	0xbd1a9f63	-0.03774966
164	0xbd21aeb3	-0.039473247
165	0x3aec0460	0.0018006675
166	0x3ae45700	0.0017420948
167	0xbce1cbae	-0.027562942
168	0x3d19821d	0.0374776
169	0xbbce5fd8	-0.0062980466
170	0xbccf003b	-0.025268665
171	0x3ad4c6e0	0.0016233586
172	0x3c2ad1c0	0.010425985
173	0xbc81497e	-0.015782114
174	0xbc6a7e1c	-0.014312293
175	0xbc5eba8c	-0.013594281
176	0xbc80e17e	-0.015732523
177	0x3cac5186	0.021034967
178	0x3c733fec	0.014846783
179	0xbca72b8b	-0.020406505
180	0xbd17eac4	-0.037089124
181	0xbcbd5b9e	-0.023114976
182	0x3d181f75	0.037139375
183	0xbc21243c	-0.009835299
184	0xbd0985f2	-0.033575006
185	0xbb809118	-0.0039235465
186	0xbce12616	-0.027483981
187	0xb9438300	-0.0001864545
188	0xbbd1eb68	-0.0064062364
189	0xbce70eb8	-0.02820526
190	0x3b7c8b70	0.003853526
191	0xbd0bfcaa	-0.034176506
192	0xbc1c53bc	-0.009541448
193	0x3d06c8e3	0.032906424
194	0x3cd1a592	0.025591645
195	0x3ccfdf02	0.025374893
196	0x3d21dbfb	0.03951643
197	0xbc6b637c	-0.014366981
198	0xbc3a489c	-0.0113698505
199	0xbad2aca0	-0.0016073175
200	0x3bb4eea0	0.0055216104
201	0xbcc591db	-0.0241174
202	0xb8f21200	-0.00011542812
203	0xbc24dd1c	-0.010062482
204	0x3c810d48	0.015753403
205	0x3d27e81f	0.040992852
206	0xbd198be3	-0.037486922
207	0x39b53280	0.00034560636
208	0xbd17b404	-0.03703691
209	0xbd12e8af	-0.035866436
210	0xbc679260	-0.01413402
211	0x3d00df93	0.031463217
212	0x3d1973e9	0.037464056
213	0x3d062d0d	0.032757808
214	0x3cceb7d2	0.025234137
215	0x3d0fb521	0.035084847
216	0x3cc561fe	0.024094578
217	0x3cdab956	0.026699703
218	0xbcbbfe53	-0.02294842
219	0xbbf9b728	-0.007620711
220	0xbc465eb6	-0.012107542
221	0x3d0f9321	0.035052422
222	0xbb864620	-0.004097715
223	0xbc8d7e8e	-0.01727226
224	0xbc9dfcc0	-0.01928556
225	0x3c981ae0	0.018567502
226	0x3c9ea50a	0.019365806
227	0xbcb3f4e6	-0.021967363
228	0xbcda6ee8	-0.026664212
229	0x3ce094ce	0.027414706
230	0xbc08929c	-0.008335736
231	0xbcc56bae	-0.024099197
232	0xbd25fc03	-0.04052354
233	0x3cf97a7a	0.03045391
234	0x3d28e7a3	0.04123653
235	0xbca6872e	-0.02032813
236	0x3c578880	0.013155103
237	0xbcf48508	-0.02984859
238	0xbc9a8343	-0.018861419
239	0x3d12edcd	0.035871316
240	0xbcedac78	-0.029012904
241	0x3bb8e248	0.005642209
242	0x3d0cbb8f	0.034358557
243	0x3d112f85	0.03544571
244	0xbcf29648	-0.029612675
245	0x3d0e3705	0.03472044
246	0x3d0b3799	0.03398857
247	0xbcbb705e	-0.02288073
248	0xbcfb570e	-0.03068116
249	0x3c23e5c0	0.010003507
250	0xbc8ddfc3	-0.017318612
251	0xbcc82080	-0.02442956
252	0xbcbf168e	-0.023326185
253	0xbc9f6e20	-0.019461691
254	0xbd086d86	-0.033307575
255	0xbd036573	-0.03207917

bias f4 [64]
0	0x3c1df1ac	0.009640139
1	0xbd0bca1e	-0.0341283
2	0xba6b3100	-0.000897184
3	0x3b417c80	0.002952367
4	0xbd168f10	-0.03675753
5	0x3c61781c	0.013761546
6	0x3d1d51eb	0.0384082
7	0xbcc0022b	-0.023438534
8	0x3b3fda70	0.0029274486
9	0x3ce4d136	0.02793179
10	0xbcdb506b	-0.026771745
11	0xbc87b470	-0.016565531
12	0x3c8dc616	0.017306369
13	0xbd23023e	-0.03979706
14	0x3c48cc0c	0.01225568
15	0x3c8298c0	0.015941978
16	0x3c99a22a	0.018754084
17	0x3c94e5e6	0.01817603
18	0x3cdb6c62	0.02678508
19	0x3c8a2a18	0.016865775
20	0xbc5e998c	-0.013586413
21	0xbd0e529c	-0.03474675
22	0xbbbc9c68	-0.0057559498
23	0xbc0f1940	-0.008734047
24	0xbcb50830	-0.02209863
25	0x3c64fca4	0.01397625
26	0x3cc8f296	0.024529736
27	0xbcc2dfc0	-0.023788333
28	0xbc6288c6	-0.013826555
29	0x3bdf6138	0.0068170093
30	0x3c635a9c	0.013876583
31	0x3bf9c8e0	0.007622823
32	0x3c94ce4a	0.018164773
33	0xbd04c3c0	-0.032413244
34	0x3cdad6ce	0.026713755
35	0x3c77741c	0.015103366
36	0x3ca8cb38	0.020604715
37	0xba1a4740	-0.0005885251
38	0x3d1b1581	0.037862305
39	0xbcec5096	-0.02884702
40	0x3d06c2b1	0.032900516
41	0x3c3fda4c	0.011709761
42	0xbc8cf020	-0.017204344
43	0x3c83c098	0.016083047
44	0xb7f4d800	-2.918765e-05
45	0xbcfcd36b	-0.03086253
46	0xbc9bbd3e	-0.019011136
47	0xbc9355fe	-0.01798534
48	0x3cb357e2	0.021892492
49	0xbcaf56b0	-0.02140364
50	0x3c349a40	0.011023104
51	0xbce2018e	-0.027588632
52	0xbd20e418	-0.039280027
53	0x3c506900	0.012720346
54	0x3ab51580	0.0013815612
55	0xbb0ae250	-0.0021192022
56	0x3cf77b9a	0.030210305
57	0x3d00cf1b	0.03144751
58	0x3d1ccf8f	0.03828388
59	0x3d17caa1	0.037058476
60	0xbc2cdff0	-0.010551438
61	0x3d0a40d1	0.03375322
62	0xbc4e1166	-0.01257739
63	0xbd264b03	-0.04059888

weight f4 [64, 64, 3, 3]
0	0xbce63af8	-0.02810429
1	0xba3be640	-0.0007167794
2	0xbcc64dc8	-0.02420701
3	0x3b67f330	0.0035392754
4	0x3b70e650	0.003675837
5	0xbcfda7ee	-0.030963864
6	0xbcfa9858	-0.030590221
7	0xbbcaa4f8	-0.0061842166
8	0x3be58bd8	0.007005196
9	0x3cc6ca22	0.024266306
10	0x3c89320a	0.016747493
11	0x3b764340	0.0037576705
12	0xbc53bd20	-0.012923509
13	0xbcc4f6f3	-0.024043536
14	0xbc603d86	-0.013686543
15	0x3c03b210	0.008038059
16	0xbd24e302	-0.040255554
17	0x3cd839e6	0.026394796
18	0xbc02e700	-0.007989645
19	0x3d0a0239	0.033693526
20	0x3d1305d5	0.035894234
21	0x3c519d84	0.012793902
22	0x3be4b0a8	0.006979067
23	0xbc1a8f1c	-0.009433534
24	0xbcb923fe	-0.02260017
25	0xbc5318b6	-0.0128843095
26	0x3c130e5c	0.0089755915
27	0xbd19c983	-0.037545692
28	0x3d1859a5	0.037194867
29	0xbb2dcd00	-0.0026519895
30	0xbd095bac	-0.03353469
31	0xbd24a5d0	-0.040197194
32	0xbd0f882f	-0.035041984
33	0xbd21c4b2	-0.039494224
34	0xbc6e68c0	-0.0145513415
35	0xbbde0d88	-0.0067765154
36	0x3c977988	0.018490568
37	0xbccbe453	-0.024889147
38	0xbc9322ab	-0.017960867
39	0x3c03626c	0.008019071
40	0xbd0c84f8	-0.034306496
41	0xbcddce1b	-0.027075818
42	0xbd1556af	-0.03645962
43	0xbd084903	-0.033272754
44	0x39935c00	0.0002810657
45	0xbc156a54	-0.009119589
46	0xbc302f30	-0.010753438
47	0x3d1298c9	0.03579024
48	0xbc9b94d3	-0.018991863
49	0xbd04f7ff	-0.03246307
50	0x3c4d1fe4	0.01251981
51	0xbc71890c	-0.014742147
52	0xbd06957c	-0.032857403
53	0xbc7e6d40	-0.015528977
54	0xba5ceb00	-0.0008427352
55	0x3cb43ef2	0.02200267
56	0xbc130a0c	-0.008974563
57	0xbb940668	-0.0045173652
58	0xbba3e598	-0.005001735
59	0x3cd300ee	0.02575728
60	0xbb9cf1b8	-0.0047895573
61	0x3c9c4d6a	0.019079883
62	0xbc9e5dee	-0.019331899
63	0x3aa22320	0.0012370087
64	0x3c861b76	0.016370516
65	0xbd0e8876	-0.034798108
66	0xbb8bf1d8	-0.0042707734
67	0x3ccdb476	0.025110465
68	0xbafa9be0	-0.0019119941
69	0xbcd6a1c0	-0.026200175
70	0x3c5290c0	0.012851894
71	0x3ac50860	0.0015032403
72	0xbd0527b3	-0.032508563
73	0xbccfa303	-0.025346285
74	0x3c386be4	0.011256192
75	0x3c41b8a4	0.011823807
76	0xbaca53e0	-0.0015436374
77	0x3c2dc964	0.010607097
78	0xbc1e67e0	-0.00966832
79	0x3cfac782	0.03061271
80	0xbb1ee5f0	-0.002424594
81	0x3cdd1e3a	0.026991952
82	0x3cba6cc6	0.022756945
83	0xbccc9a18	-0.024975821
84	0x3b85e2e0	0.0040858835
85	0xbc670136	-0.01409941
86	0xbc25502c	-0.010089915
87	0xbd09e652	-0.033666916
88	0x3d0bd16b	0.034135263
89	0x3cb015f6	0.021494847
90	0x3c884652	0.016635094
91	0x3d221bd9	0.03957734
92	0xbcb4a7d6	-0.022052687
93	0x3c68d7e0	0.014211625
94	0x3c441e6c	0.011970144
95	0x3acf2a20	0.0015805401
96	0xbcf8e333	-0.030381775
97	0x3b40d3b0	0.002942305
98	0xbd1fa378	-0.038974255
99	0x3d29a38d	0.04141574
100	0xbd2a941c	-0.041645154
101	0x3c5fdd7c	0.013663646
102	0x3cfce93a	0.03087293
103	0x3cca2342	0.024675015
104	0x3cd46a76	0.02592967
105	0x3bbc5df8	0.0057485066
106	0xbbd4e348	-0.0064968206
107	0x3d1d7c7d	0.0384488
108	0x3cb812c2	0.022469882
109	0x3b87d408	0.004145149
110	0x3c98572a	0.01859625
111	0x3d1be9bd	0.038064707
112	0xbcafd650	-0.021464497
113	0x3c74bc54	0.014937479
114	0x3d0ceb41	0.034404043
115	0x3cbd612a	0.02311762
116	0x3c2ba794	0.010476965
117	0x3d1e7345	0.03868415
118	0xbc2f09c6	-0.0106834825
119	0xbc28386c	-0.010267358
120	0xbb70e630	-0.0036758296
121	0x3cf7a5d2	0.030230436
122	0xbcdbffb8	-0.026855335
123	0xbc4fd616	-0.012685319
124	0x3d142135	0.03616448
125	0x3d29da59	0.041468
126	0xbcad9503	-0.021189218
127	0x3cb30e0a	0.02185728
128	0xb93ab400	-0.00017805398
129	0xbd036476	-0.03207823
130	0xbcbbd183	-0.022927051
131	0xbd1aba72	-0.037775464
132	0x3bb46598	0.005505275
133	0xbd0d1f1a	-0.03445349
134	0xbcff1213	-0.031136548
135	0xbc6dc6f6	-0.014512768
136	0x3bfc5360	0.0077003688
137	0xbb8b9e98	-0.004260849
138	0xbcf6c9b6	-0.03012548
139	0x3d26e0f5	0.04074188
140	0xbc401b56	-0.011725267
141	0xbc2d91e0	-0.010593861
142	0xbd0b02fe	-0.0339384
143	0x3cf549f2	0.029942486
144	0xbc7d2290	-0.015450135
145	0x3d196f93	0.03745992
146	0x3ca445e8	0.020052865
147	0x3ae04760	0.0017111115
148	0xbd2384de	-0.039921634
149	0x3cce8056	0.02520768
150	0xbbbb8158	-0.005722206
151	0x3b2de200	0.0026532412
152	0xbc426150	-0.011864021
153	0x3c04081c	0.008058574
154	0x3bb966a8	0.0056579895
155	0xbd19b042	-0.03752161
156	0x3c4b48e4	0.012407515
157	0x3a51f200	0.0008008778
158	0xbcd99390	-0.026559621
159	0xbc9b6040	-0.018966794
160	0xbc774f8c	-0.015094649
161	0x3cf9346e	0.030420508
162	0xbbb02d88	-0.0053765215
163	0xbd07346b	-0.033008974
164	0xbcd73d30	-0.026274294
165	0x3c0f8c24	0.0087614395
166	0xbd16d313	-0.03682239
167	0xbcdd6e98	-0.027030274
168	0xbd0b9390	-0.034076273
169	0x3cfd47ea	0.03091808
170	0x3c0ed35c	0.008717384
171	0x3a97d2a0	0.0011583157
172	0xbca05a28	-0.01957424
173	0x3d018e85	0.031630058
174	0x3bf4de38	0.0074727796
175	0x3c72d870	0.0148221105
176	0xbca75060	-0.020424068
177	0xbc9c66de	-0.01909202
178	0x3b992098	0.004673075
179	0x3d282679	0.041052315
180	0x3c70b07c	0.014690515
181	0x3cb86ce2	0.022512857
182	0xbcd52e9b	-0.0260232
183	0x3ad21e00	0.0016030669
184	0x3d0e77c1	0.034782175
185	0xbcf24298	-0.02957277
186	0xb611c000	-2.1718442e-06
187	0x3c86dfb2	0.016464088
188	0xbc0e9580	-0.008702636
189	0xbd1c7493	-0.03819711
190	0xbc13b260	-0.009014696
191	0x3cb7f75e	0.022456821
192	0x3c06ad70	0.008220062
193	0xbcbb1c8e	-0.022840764
194	0xbd1979af	-0.037469562
195	0x3c279d50	0.010230377
196	0xbc7c93dc	-0.015416112
197	0x3b0c88f0	0.0021443926
198	0xbcceaae0	-0.025227964
199	0x3cc89726	0.024486136
200	0x3c2d8bec	0.010592442
201	0x3cc6359a	0.024195481
202	0xbd03892e	-0.032113247
203	0xbd05495c	-0.032540664
204	0xbc973a23	-0.018460339
205	0xbc94d85e	-0.018169578
206	0xbc9323be	-0.01796138
207	0xbd176b5c	-0.03696762
208	0x3cfaae8a	0.030600805
209	0x3d283d41	0.04107404
210	0x3ceadf42	0.02867091
211	0x3c869276	0.01642726
212	0x3c9afd72	0.01891968
213	0xbba9bb98	-0.0051798336
214	0x3c674130	0.014114663
215	0x3d06411d	0.03277694
216	0x3b1f42d0	0.0024301298
217	0x3cdabeea	0.026702363
218	0xbce7dc2b	-0.028303226
219	0xbc1f6924	-0.009729657
220	0xbc83b5d8	-0.01607792
221	0xbd08ad5e	-0.03336846
222	0x3cf66bd2	0.03008071
223	0x3cdede06	0.027205478
224	0xbc9a98e6	-0.018871736
225	0xbce85a53	-0.028363382
226	0xbcc44240	-0.023957372
227	0x3c1548d4	0.009111602
228	0xbbd782d8	-0.006576877
229	0x3ca0eca6	0.019644093
230	0x3bbf74a0	0.00584276
231	0x3c07131c	0.008244302
232	0xbcd17628	-0.025569037
233	0xbd083cfe	-0.03326129
234	0x3cd9e89a	0.02660017
235	0xbcad9ece	-0.021193888
236	0xbba74600	-0.00510478
237	0x3d28cf71	0.041213457
238	0x3ccaa336	0.024736028
239	0xbd0f1818	-0.034935087
240	0x3c8be77e	0.017078158
241	0x38ad0600	8.2504004e-05
242	0xbc9d06db	-0.019168308
243	0x3b81f9c0	0.00396654
244	0x3d06ea25	0.03293814
245	0x3c1b8cf0	0.009494051
246	0xbce95ebe	-0.02848756
247	0x3c260e40	0.010135233
248	0xbcab574b	-0.020915648
249	0xbce8a42b	-0.028398594
250	0xbceec9a6	-0.029148888
251	0x3bdb7e28	0.0066983886
252	0x3ba93e48	0.005164895
253	0xbcea696b	-0.02861472
254	0xbc01f3ec	-0.007931691
255	0x3c3cd004	0.011524204

bias f4 [64]
0	0xba016d40	-0.0004937239
1	0x3b5f8730	0.0034107678
2	0xba30e040	-0.0006747283
3	0xbba81c18	-0.005130302
4	0xbd221506	-0.03957083
5	0xbc204180	-0.009781241
6	0xbbca0b60	-0.006165907
7	0xbc518476	-0.012787929
8	0x3c32d7c0	0.010915697
9	0x3cf4b4ca	0.029871363
10	0x3c097400	0.008389473
11	0x3bcb5180	0.006204784
12	0x3a923480	0.0011154562
13	0xbcf09396	-0.02936725
14	0x3d245765	0.04012241
15	0x3cec1a7e	0.028821226
16	0xbca6bb98	-0.020353124
17	0x3ccca8b2	0.024982784
18	0x3c3d8cdc	0.011569228
19	0xbc8217e8	-0.01588054
20	0x3c2dd6cc	0.010610294
21	0xbc977253	-0.018487131
22	0x3c69e5ec	0.014276009
23	0x3b6618b0	0.003510993
24	0x3d0909af	0.0334565
25	0x3b95e580	0.0045744777
26	0x3d04d747	0.032431867
27	0xbc8f1143	-0.017464286
28	0x3cce4b72	0.02518246
29	0x3c920630	0.017825216
30	0x3ced58a6	0.028972935
31	0xbd248d28	-0.04017368
32	0xbc9ad608	-0.018900886
33	0x3cbef46a	0.023309905
34	0x3cc4ad22	0.024008337
35	0xbd288d2c	-0.041150257
36	0x3d189f8d	0.037261534
37	0xbd12f30e	-0.035876326
38	0x3c6a3de0	0.014296979
39	0xbd1eeb00	-0.038798332
40	0x3c4d8d1c	0.01254585
41	0x3cd68842	0.02618802
42	0xbc5e5d00	-0.013571978
43	0x3c138744	0.009004418
44	0x3c0edc34	0.008719493
45	0xbd16f6ff	-0.036856648
46	0x3c940582	0.018069033
47	0x3afe2880	0.0019390732
48	0xbd10226a	-0.03518907
49	0x3cb21652	0.021739159
50	0xbd242008	-0.04006961
51	0x3d1dfd3d	0.038571585
52	0x3cf20fce	0.029548552
53	0xbd0aaf1a	-0.033858396
54	0x3c27763c	0.01022106
55	0x3ceb0e56	0.02869336
56	0x3ce823e2	0.028337423
57	0x3d24ae55	0.04020532
58	0x3c39caac	0.011339825
59	0x3cbb656a	0.022875506
60	0xbca62486	-0.020281088
61	0x3c7dd324	0.015492234
62	0x3c55c570	0.013047561
63	0x3cfbdc12	0.030744586

weight f4 [3, 64, 3, 3]
0	0xbc59fd70	-0.013305053
1	0x3c5d4da4	0.0135072805
2	0x3c5170dc	0.012783255
3	0x3d095e23	0.03353704
4	0x3d118c4d	0.035534192
5	0xbd29bff2	-0.04144282
6	0xbd027952	-0.03185398
7	0x3cf1a146	0.029495846
8	0x3d26bc11	0.040706698
9	0x3cd114e6	0.02552266
10	0x3cfc1f0a	0.03077652
11	0x3cfb61e6	0.03068633
12	0xbb85f3c0	-0.004087895
13	0xbcc59748	-0.024119988
14	0x3c49f32c	0.012326043
15	0xbd14d537	-0.03633615
16	0xbc810fbe	-0.015754577
17	0x3c04021c	0.008057144
18	0x3d1ff923	0.039055955
19	0x3be8e7e8	0.0071077235
20	0xbd288a56	-0.041147552
21	0xbb1c8570	-0.0023883246
22	0x3c57b720	0.013166219
23	0x3cd9fbca	0.02660932
24	0xbbeba278	-0.0071909986
25	0xbd152b4c	-0.036418244
26	0xbd1c1d90	-0.03811413
27	0xbce2ef13	-0.02770189
28	0xbcc44853	-0.023960268
29	0xbc8919c8	-0.016735926
30	0x3c57ff04	0.013183359
31	0xbab3e180	-0.001372382
32	0xbcbc96ae	-0.023021068
33	0xbce0ebde	-0.02745622
34	0x3cc08a8a	0.02350356
35	0xbc0f9dfc	-0.008765694
36	0x3ca9d600	0.020731926
37	0x3d04d641	0.03243089
38	0x3b2b7830	0.0026164167
39	0xbc0517b4	-0.008123327
40	0xbc9d595e	-0.019207653
41	0xbd1e88a7	-0.03870454
42	0xbd09a842	-0.03360773
43	0x3d1d94d1	0.038472
44	0xbc317e00	-0.010833263
45	0x3cf11fda	0.029434133
46	0x3c241954	0.010015804
47	0x3c0290f0	0.007969126
48	0xbc3df816	-0.011594793
49	0xbc4fc930	-0.012682244
50	0xbd22698a	-0.03965143
51	0x3ce7e82e	0.028308954
52	0x3bdf7d98	0.006820392
53	0x3c79993c	0.015234288
54	0x3cbea946	0.023274075
55	0xbbb8e338	-0.005642321
56	0x3bddde00	0.006770849
57	0xbd1c7037	-0.038192954
58	0xbd1983d4	-0.037479237
59	0x3cf3264a	0.029681344
60	0x3ce7a4a6	0.028276753
61	0x3cbd1372	0.023080561
62	0x3c95221e	0.018204745
63	0x3cea8946	0.02862991
64	0x3cbd5fb6	0.023116928
65	0xbcbe3846	-0.023220193
66	0xbce76420	-0.028245986
67	0xbba3e808	-0.0050020255
68	0xbc9c5343	-0.019082671
69	0x3c9e362a	0.019312937
70	0x3b6ede80	0.0036448538
71	0xbbbfae08	-0.0058496036
72	0x3cf91622	0.030406062
73	0xbcc5e83e	-0.024158593
74	0x3c393b30	0.011305615
75	0x3c679eb4	0.014136959
76	0x3d09df05	0.033659954
77	0xbc2ee62c	-0.010674994
78	0xbc33b53c	-0.010968503
79	0x3bad54a0	0.005289629
80	0x3c2f0650	0.010682657
81	0xbb2a4690	-0.0025982
82	0xbcd69c03	-0.026197439
83	0x3ce0a686	0.027423155
84	0xbce053a3	-0.027383631
85	0x3cfe05ee	0.031008687
86	0xbbdf97c8	-0.0068235137
87	0x3a4d3f40	0.00078295544
88	0xbbfc6b60	-0.00770323
89	0x3cbad6fa	0.022807587
90	0xbc94e323	-0.018174713
91	0x3c9aa7ea	0.018878896
92	0xbd05ff9a	-0.032714464
93	0xbcbaf138	-0.0228201
94	0xbd0bddb8	-0.034146994
95	0x3c0325f4	0.008004654
96	0x3d2827db	0.041053634
97	0xbd078097	-0.033081617
98	0x3cab55c2	0.020914916
99	0xbc8ec93e	-0.017429944
100	0x3cbb8fb2	0.022895668
101	0xbcac0476	-0.02099822
102	0xbd05e6fb	-0.032690983
103	0xbcad93e0	-0.021188676
104	0x3d0aab77	0.033854928
105	0xbc7143bc	-0.014725622
106	0x3d167b2f	0.03673857
107	0x3ccff65a	0.025386024
108	0x3cc75cce	0.024336245
109	0xbd17a507	-0.037022617
110	0x3d049e8d	0.03237777
111	0x3d03ce5d	0.032179225
112	0x3c1ba1d4	0.009499032
113	0x3a2dd2c0	0.00066308305
114	0x3d201d5d	0.039090503
115	0x3c862cfa	0.016378868
116	0xbb9e1f68	-0.0048255213
117	0xbbd74748	-0.0065697767
118	0x3d27f819	0.04100809
119	0x3c535484	0.012898568
120	0x3c52065c	0.012818899
121	0x3a0d9900	0.0005401522
122	0xbcca7de8	-0.02471824
123	0x3c2de510	0.010613695
124	0x3d0e1585	0.03468849
125	0xbd161ad0	-0.036646664
126	0x3cc7ad9a	0.024374772
127	0x3c598d20	0.013278276
128	0x3d032961	0.032021884
129	0xbd194764	-0.0374216
130	0xbcfb768b	-0.030696174
131	0xbcaddbd3	-0.021222984
132	0x3d1dcab3	0.038523387
133	0xbc01b04c	-0.007915568
134	0xbcd7829e	-0.0263074
135	0x3c6b38a4	0.014356766
136	0x3cda35ea	0.026637036
137	0x3d1f1347	0.038836744
138	0x3cf82d0a	0.030294914
139	0x3ac0c7a0	0.001470793
140	0x3d1b7ccd	0.037960816
141	0xbbe1ca60	-0.00689058
142	0x3c0b1af0	0.008490309
143	0xbc7ce6b6	-0.015435865
144	0xbd237b4c	-0.039912507
145	0x3aa243a0	0.0012379773
146	0x3ccfaf3e	0.025352117
147	0xbcb0f838	-0.021602735
148	0x3ca3b556	0.019983929
149	0x3c6f091c	0.014589574
150	0x3c375120	0.011188775
151	0x3c0b4120	0.008499414
152	0x3d112851	0.03543884
153	0xbb9d5d88	-0.0048024096
154	0x3c0bcb7c	0.008532401
155	0x3c584c04	0.013201717
156	0xbc3bd7d6	-0.0114650335
157	0xbcfc5336	-0.030801397
158	0x3b67c7f0	0.0035366975
159	0xbd1c5da3	-0.038175236
160	0x3d02cd35	0.031933982
161	0xbd19018f	-0.037355002
162	0xbd062812	-0.032753058
163	0x3bb64820	0.005562797
164	0x3d09e3a3	0.033664357
165	0x3c7b415c	0.015335407
166	0xbd1c22ea	-0.038119234
167	0x3d0696cd	0.03285866
168	0x3c8b67a0	0.017017186
169	0xbcff5840	-0.03117001
170	0xbd1f4468	-0.038883597
171	0x3ab59b60	0.001385551
172	0x3c46d604	0.012135986
173	0xbcfe7ebb	-0.03106629
174	0xbcb69fde	-0.022293027
175	0xbc2c9b50	-0.010535076
176	0xbb494ef0	-0.0030717216
177	0x3ccf8896	0.025333684
178	0x3caeb03a	0.021324266
179	0x3cf4980a	0.029857654
180	0x3d0e2acb	0.03470878
181	0x3d298ec9	0.041395936
182	0xbb038cc0	-0.0020072907
183	0x3ce767ee	0.0282478
184	0x3c9c58da	0.019085336
185	0x3b57e9f0	0.0032945834
186	0xbcddd960	-0.027081192
187	0x3ac27060	0.0014834516
188	0x3d151b81	0.036403183
189	0x3cfc1cc2	0.030775432
190	0xbd218327	-0.039431717
191	0x3a109e00	0.0005516708
192	0x3c611f4c	0.013740372
193	0x3b159030	0.0022821538
194	0x3cefc41a	0.029268313
195	0xbae92920	-0.0017788745
196	0x3bc25ae0	0.0059312433
197	0x3aa0c320	0.0012265183
198	0x3c2b6b94	0.01046266
199	0x3cbaf376	0.02282117
200	0xb9e6ef80	-0.0004404746
201	0xbcd8ebae	-0.026479568
202	0x3d1e9e85	0.038725395
203	0xbc4415dc	-0.011968102
204	0xbb6e7b00	-0.0036389232
205	0xbcd3e793	-0.02586726
206	0x3c145234	0.009052802
207	0xbcce8580	-0.025210142
208	0x3d241571	0.04005951
209	0x3cbaf9ea	0.022824246
210	0x3d1e44f9	0.038639996
211	0x3cd73cf2	0.026274178
212	0xbcfcec4e	-0.030874398
213	0xbd13f8e2	-0.036126025
214	0x3bae8d60	0.005326912
215	0x3b212bc0	0.0024592727
216	0x3c10ec44	0.008845393
217	0xbd1ea4d2	-0.038731404
218	0x3c74f2e4	0.014950488
219	0xbd1d92ee	-0.0384702
220	0xbcbae07b	-0.022812119
221	0x3d23bd05	0.039975185
222	0xbd20bf0a	-0.03924469
223	0xbc374166	-0.011185026
224	0xbd071ffc	-0.032989487
225	0x3b548590	0.0032428242
226	0x3c9e1c28	0.019300535
227	0xbbeaa0f8	-0.0071603023
228	0x3c294a30	0.010332629
229	0x3b624a10	0.0034529008
230	0xbc7585a0	-0.014985472
231	0x3cf18b5e	0.0294854
232	0xbc952c9b	-0.018209746
233	0xbd214c9a	-0.039379694
234	0xba748140	-0.0009327121
235	0x3ca1bd12	0.019743476
236	0xbadfa400	-0.0017062426
237	0x3c6221c4	0.013801996
238	0x3b928b88	0.0044722
239	0x3b1612d0	0.0022899397
240	0x3cefc172	0.029267047
241	0x3c3babfc	0.0114545785
242	0xbce0a923	-0.0274244
243	0x3bfa3138	0.007635262
244	0x3c6e20bc	0.014534172
245	0xbd22a942	-0.039712198
246	0xbd2a8c47	-0.041637685
247	0x3d04206b	0.03225748
248	0x3cc8b3be	0.02449977
249	0xbb7abff0	-0.0038261376
250	0xbbba2828	-0.0056810565
251	0xbd1d37c0	-0.038383245
252	0xbd13d9a7	-0.03609624
253	0x3b32cbb0	0.0027282052
254	0xbc646166	-0.013939237
255	0xbcc5c653	-0.02414242

bias f4 [3]
0	0xbcab3356	-0.020898502
1	0xbcc98d9e	-0.024603661
2	0xbc91a9d0	-0.017781168
